data.pth (torch, 5098 bytes, 6 tensors)

l1.weight f4 [8, 45]
0.24617949 0.3972817 -0.1731375 0.015180543 -0.17048556 0.115634575 0.015690144 0.51315224
0.8773908 0.021276066 -0.13437788 -0.16171917 -0.3117167 0.113368645 -0.042904068 0.5810412
-0.06328928 -0.335392 0.14904708 -0.1831908 0.049649063 0.3238539 -0.0718752 0.39092216
0.5819251 0.101330385 -0.1608065 -0.25164416 1.0205514 -0.060325954 0.17399564 0.119635954
-0.06103854 0.8263557 -0.4088817 0.0603387 0.80503505 0.5078389 0.04085506 -0.42449424
-0.23397972 -0.2814812 0.35788146 0.47743902 0.10124175 -0.1354638 -0.17022449 0.6801152
0.07333782 -0.4349707 -0.099589646 0.5984312 0.0034504808 -0.32537818 0.32602796 0.38815942
0.06873219 0.7871511 0.29832062 -0.12486528 -0.15876442 -0.047519676 -0.06611005 0.0061198454
-0.17290625 0.13547288 0.6663327 -0.13261676 0.5189506 -0.14643891 0.21006325 -0.16084124
0.97882015 -0.53496224 0.59248996 0.6001939 0.47271922 0.53480184 -0.7532734 0.86093134
-0.16507784 0.47333428 -0.060470417 0.13885932 -0.10105947 -0.14148168 -0.55430233 0.09661026
0.9080221 -0.11807975 0.13778746 -0.11066942 0.4387169 0.030219497 -0.06915519 -0.0013802752
-0.14733963 0.022371218 0.6001379 0.3246718 -0.086465485 -0.064685896 0.22640078 0.6491148
-0.13039216 -0.12430013 -0.19484386 -0.18773699 -0.19477946 -0.19737259 -0.109352395 -0.15805973
0.4865629 0.69745755 0.015606525 0.723363 -0.16639026 -0.3079342 -0.28164792 0.16432725
0.68119705 -0.0917789 -0.027540453 0.07999118 -0.18680517 0.41628295 0.15487498 -0.13362652
0.43628126 -0.19591022 -0.14675963 0.03105162 0.30230665 -0.1298394 -0.08743871 0.7079421
-0.24781394 -0.36081505 0.3746679 0.6659825 0.4144216 0.10901596 -0.2586368 -0.3406735
-0.28812322 0.018127274 0.4839933 -0.07502776 -0.6512063 0.54154694 -0.2212658 0.6722114
0.57527715 0.7583994 0.5683612 0.42554662 -0.30403247 -0.1402494 -0.55798227 -0.44236913
-0.54234904 0.39135537 0.14399411 0.18036568 -0.15081577 -0.6074019 -0.09875094 -0.082104765
0.37795106 0.17211235 -0.26194206 -0.18957558 -0.30491784 -0.2319385 1.2785819 0.8003543
0.49883673 -0.47666052 -0.7731684 0.5066825 -0.030415569 -0.21770014 0.043718126 0.049349945
0.54464996 0.75445205 0.4576117 -0.35109878 -0.8214585 0.42654562 0.35363454 0.62497735
-0.020901205 0.49471262 0.77897525 -0.2860514 0.97834337 -0.33493966 0.9829058 0.97852737
0.7908306 0.5760514 -0.7370924 0.4999882 -0.31457606 0.5536504 -0.16522855 0.9327643
0.45892003 0.2941414 0.52419925 0.52206266 0.4037745 0.53663754 0.99805605 -0.5286576
0.9014927 -0.5728788 0.32334203 -0.72284245 -0.32630432 0.7346586 0.38887233 0.16865283
0.03370458 0.20973933 0.72949785 -0.42645696 -0.11583645 0.30224884 0.51307803 0.18073738
0.5725669 0.9102162 0.024208149 -0.093342796 0.63514024 -0.42648596 0.1931001 0.6947584
0.5753317 0.9245501 -0.35007575 0.7557334 0.9012714 0.45459455 0.40921205 -0.046854258
0.19403261 0.84020126 0.2644868 -0.066484 -0.2128099 0.7092508 0.018351002 0.26613176
00000000: 7a16 7c3e 8268 cb3e f54a 31be d0b7 783c
00000010: c493 2ebe d2d1 ec3d 9e88 803c f25d 033f
00000020: af9c 603f 254b ae3c 5b9a 09be b699 25be
00000030: 5599 9fbe d22d e83d 2dbc 2fbd 1ebf 143f
00000040: cf9d 81bd 80b8 abbe cc9f 183e 5e96 3bbe
00000050: d15c 4b3d 2ed0 a53e 4e33 93bd f326 c83e
00000060: 0bf9 143f 4e86 cf3d 76aa 24be 81d7 80be
00000070: 6ea1 823f 5918 77bd ea2b 323e b203 f53d
00000080: 8c03 7abd 0c8c 533f f158 d1be b625 773d
00000090: c716 4e3f bb01 023f a357 273d 4f57 d9be
000000a0: 6198 6fbe 4e1e 90be 3d3c b73e e372 f43e
000000b0: d657 cf3d 06b7 0abe 544f 2ebe 081c 2e3f
000000c0: 2432 963d 7bb4 debe a8f5 cbbd ca32 193f
000000d0: 7621 623b f897 a6be 23ed a63e d5bc c63e
000000e0: 76c3 8c3d bc82 493f 7bbd 983e 5eb9 ffbd
000000f0: 2493 22be fea3 42bd b564 87bd fc88 c83b
00000100: 560e 31be 67b9 0a3e c894 2a3f b0cc 07be
00000110: f2d9 043f 15f4 15be d21a 573e 91b3 24be
00000120: f593 7a3f 49f3 08bf 6cad 173f 4fa6 193f
00000130: 4108 f23e c6e8 083f 87d6 40bf ff65 5c3f
00000140: 2a0a 29be df58 f23e d4af 77bd 2331 0e3e
00000150: 44f8 cebd 93e0 10be c2e6 0dbf 9adb c53d
00000160: 2374 683f ccd3 f1bd 2818 0d3e a6a6 e2bd
00000170: 809f e03e e18e f73c 3ca1 8dbd 5aea b4ba
00000180: 33e0 16be d843 b73c a3a2 193f 623b a63e
00000190: d114 b1bd 0a7a 84bd 9bd5 673e 632c 263f
000001a0: 8685 05be 1191 febd 2685 47be 203e 40be
000001b0: 4474 47be 0a1c 4abe 26f4 dfbd 69da 21be
000001c0: c61e f93e 948c 323f 83b2 7f3c 512e 393f
000001d0: 3562 2abe 8da9 9dbe 2834 90be 6745 283e
000001e0: ee62 2e3f 93f6 bbbd 849c e1bc 6ad2 a33d
000001f0: db49 3fbe 0a23 d53e 8c97 1e3e 64d5 08be
00000200: 4260 df3e b09c 48be 2848 16be f85f fe3c
00000210: f0c7 9a3e 9ff4 04be 1113 b3bd b23b 353f
00000220: f0c2 7dbe c0bc b8be 79d4 bf3e d47d 2a3f
00000230: 112f d43e c243 df3d 0b6c 84be c26c aebe
00000240: e384 93be a67f 943c f8cd f73e 27a8 99bd
00000250: 75b5 26bf d2a2 0a3f 8093 62be 0c16 2c3f
00000260: 5d45 133f 7726 423f 1f80 113f 3fe1 d93e
00000270: 25aa 9bbe 8a9d 0fbe edd7 0ebf 357e e2be
00000280: 63d7 0abf bb5f c83e 3173 133e c8b1 383e
00000290: 736f 1abe b17e 1bbf ef3d cabd 8b26 a8bd
000002a0: cd82 c13e 383e 303e 451d 86be 1a20 42be
000002b0: 311e 9cbe 4981 6dbe 92a8 a33f 05e4 4c3f
000002c0: 8767 ff3e d90c f4be 5dee 45bf f2b5 013f
000002d0: 122a f9bc c9ec 5ebe c711 333d 2b23 4a3d
000002e0: 2e6e 0b3f c523 413f 154c ea3e 38c3 b3be
000002f0: 1b4b 52bf 3064 da3e 960f b53e 84fe 1f3f
00000300: 0139 abbc f94a fd3e ec6a 473f 5475 92be
00000310: b674 7a3f 367d abbe b79f 7b3f c580 7a3f
00000320: e073 4a3f 1b78 133f 16b2 3cbf 74fe ff3e
00000330: 1d10 a1be 08bc 0d3f ac31 29be a4c9 6e3f
00000340: 91f7 ea3e b499 963e ec31 063f e6a5 053f
00000350: 88bb ce3e 1461 093f 9a80 7f3f 1b56 07bf
00000360: 3ac8 663f 2fa8 12bf 168d a53e 340c 39bf
00000370: 5c11 a7be 9612 3c3f 461a c73e 54b3 2c3e
00000380: d00d 0a3d e8c5 563e 5fc0 3a3f 9158 dabe
00000390: a93b edbd 5cc0 9a3e 1559 033f 3813 393e
000003a0: bf93 123f ee03 693f 2b50 c63c 822a bfbd
000003b0: 8d98 223f 5e5c dabe 08bc 453e b0db 313f
000003c0: f048 133f 51af 6c3f 213d b3be be77 413f
000003d0: b9b9 663f 9ec0 e83e 3e84 d13e 40ea 3fbd
000003e0: 7cb0 463e 6e17 573f d06a 873e c328 88bd
000003f0: d7ea 59be 7691 353f d754 963c 6c42 883e

l1.bias f4 [8]
0.32259548 0.323277 0.19375585 0.9774581 0.85415685 0.44837505 0.37633127 0.1976475
00000000: 3c2b a53e 9084 a53e ef67 463e b23a 7a3f
00000010: 06aa 5a3f 6a91 e53e 7eae c03e 1b64 4a3e

l2.weight f4 [8, 8]
0.33531466 0.21949522 0.9441208 -0.45942274 -0.49798337 0.71175855 0.81164336 0.4725896
0.34066775 0.2855938 0.70218974 -0.8357441 0.7758888 0.05203559 -0.48217767 0.6920747
0.35941806 0.014269743 -0.26959738 0.07060292 0.98406637 0.57872784 -0.7924481 -0.102372445
1.3650469 -0.73845196 0.34681228 -0.22911188 0.8518644 1.4388733 -0.013058334 0.713202
-0.886441 0.33512473 -0.4494335 1.1093439 0.8917021 -0.46929267 -0.10610181 -0.6352642
-0.4426561 0.9835413 0.004246644 -0.31296155 0.7961503 -0.32536292 0.75788796 0.082326524
-0.17920338 -0.3933029 -0.789949 1.7408863 0.6219156 0.029194258 -0.49257407 -0.41034895
-0.59705853 -0.13400902 0.72420365 -0.017538697 -0.5423909 -0.41150293 0.5963884 0.57582366
00000000: 5dae ab3e 5bc3 603e e7b1 713f 7539 ebbe
00000010: adf7 febe cf35 363f dcc7 4f3f 44f7 f13e
00000020: 016c ae3e 5a39 923e b5c2 333f 53f3 55bf
00000030: a6a0 463f 4523 553d fedf f6be cf2b 313f
00000040: a505 b83e a4cb 693c ab08 8abe 4498 903d
00000050: c6eb 7b3f 8227 143f e1dd 4abf a5a8 d1bd
00000060: dbb9 ae3f 300b 3dbf 6191 b13e 4e9c 6abe
00000070: c913 5a3f 002d b83f 9ff2 55bc 6894 363f
00000080: cced 62bf 7895 ab3e 261c e6be fbfe 8d3f
00000090: 9746 643f 2147 f0be e84b d9bd ada0 22bf
000000a0: d2a3 e2be 5dc9 7b3f 6f27 8b3b 7f3c a0be
000000b0: 82d0 4b3f f895 a6be f204 423f cf9a a83d
000000c0: 1781 37be ff5e c9be 193a 4abf 5dd5 de3f
000000d0: dc35 1f3f cc28 ef3c ab32 fcbe 4219 d2be
000000e0: d4d8 18bf a939 09be 6965 393f 50ad 8fbc
000000f0: 21da 0abf 83b0 d2be e9ac 183f 2e69 133f

l2.bias f4 [8]
0.3677147 -0.27974418 -0.25186503 0.56790346 0.30576846 0.3401156 0.94171315 -0.0818865
00000000: 1a45 bc3e a13a 8fbe 74f4 80be 1f62 113f
00000010: af8d 9c3e a223 ae3e 1d14 713f 1cb4 a7bd

l3.weight f4 [8, 8]
-0.16811918 0.69452876 0.25474754 0.24384488 -0.69025594 0.04020165 -1.4488053 -0.80745584
-1.1387129 -0.1892298 0.51920605 0.5642725 -1.8506823 -1.0517108 -0.04532306 -0.25045833
0.3385403 -1.452565 -0.72440696 -1.2769597 -1.4765415 0.29788536 -0.8628946 0.7329287
-0.41674143 -0.79393303 -1.2680357 -0.44347647 0.41411722 0.6084104 -1.0535654 -0.89555997
-1.7359805 0.6081091 0.3920746 -0.90711296 0.3080051 0.061470795 -0.5611206 -0.62605184
0.7962856 -1.4332938 -0.75024354 0.7771084 -0.8001002 -1.0273945 -0.82110816 -1.0751281
-1.7984992 -1.131808 0.34634393 0.3190219 0.33385813 -0.45152688 0.11254869 -0.31723362
-0.49462214 -0.6464966 -1.6316653 -1.4128238 0.648805 -1.1527874 0.9807481 -0.6166751
00000000: 6f27 2cbe a3cc 313f 456e 823e 79b2 793e
00000010: 9db4 30bf 7caa 243d 7472 b9bf 6db5 4ebf
00000020: 58c1 91bf 75c5 41be b0ea 043f 2a74 103f
00000030: 28e3 ecbf 769e 86bf aca4 39bd 133c 80be
00000040: 2755 ad3e a6ed b9bf bc72 39bf 6a73 a3bf
00000050: 50ff bcbf 6e84 983e a9e6 5cbf 37a1 3b3f
00000060: 225f d5be 323f 4bbf fe4e a2bf 590f e3be
00000070: 2c07 d43e c9c0 1b3f 3bdb 86bf 6b43 65bf
00000080: 9c34 debf 0aad 1b3f 01be c83e 8e38 68bf
00000090: d8b2 9d3e cdc8 7b3d 9aa5 0fbf ef44 20bf
000000a0: 60d9 4b3f 2c76 b7bf f60f 40bf 93f0 463f
000000b0: 5ed3 4cbf aa81 83bf 2534 52bf cc9d 89bf
000000c0: 3935 e6bf 16df 90bf fe53 b13e d756 a33e
000000d0: 74ef aa3e 882e e7be ed7f e63d 726c a2be
000000e0: 1d3f fdbe cd80 25bf 69da d0bf 69d7 b4bf
000000f0: 1618 263f 8a8e 93bf 4f12 7b3f 6bde 1dbf

l3.bias f4 [8]
-0.061710767 -0.3768133 0.36920458 -0.042845458 -0.46005273 0.264846 -0.039744962 0.130879
00000000: 6ec4 7cbd aced c0be 6208 bd3e b87e 2fbd
00000010: 088c ebbe e599 873e 9dcb 22bd 2505 063e
